…
        "weight_decay": 0.1,
        "fused": true
    },
    "training": {
        "loss": "HuberLoss",
        "num_epochs": 10,
        "max_grad_norm": 1,
        "lr_cosine_annealing": false,
        "t_0": 10,
        "t_mult": 2
    },
    "log_base": "/home/condor/dir_234926/logs",
    "log_name": "run_230814-142507_wine-jacamar",
    "cuda": 0,
    "seed": 1337,
    "deterministic": true,
    "num_threads": 1,
    "mode": "run"
}
device=device(type='cuda', index=0): _CudaDeviceProperties(name='NVIDIA TITAN RTX', major=7, minor=5, total_memory=24212MB, multi_processor_count=72)
Transformer(
  (cont_embedding): Linear(in_features=4, out_features=16, bias=True)
  (pdgid_embedding): Embedding(6, 8, padding_idx=0)
  (charge_embedding): Embedding(4, 8, padding_idx=0)
  (event_encoder): TransformerEncoder(
    (layers): ModuleList(
      (0-1): 2 x TransformerEncoderLayer(
        (norm_1): LayerNorm((32,), eps=1e-05, elementwise_affine=True)
        (self_attention): SelfAttention(
          (qkv_projection): Linear(in_features=32, out_features=96, bias=True)
          (attention_dropout): Dropout(p=0, inplace=False)
          (output_projection): Linear(in_features=32, out_features=32, bias=True)
          (output_dropout): Dropout(p=0, inplace=False)
        )
        (feedforward): Feedforward(
          (0): LayerNorm((32,), eps=1e-05, elementwise_affine=True)
          (1): Linear(in_features=32, out_features=128, bias=True)
          (2): GELU(approximate='none')
          (3): Linear(in_features=128, out_features=32, bias=True)
          (4): Dropout(p=0, inplace=False)
        )
        (norm_2): LayerNorm((32,), eps=1e-05, elementwise_affine=True)
      )
    )
  )
  (aggregator): ScatterMean()
  (regression_head): Sequential(
    (0): BatchNorm1d(32, eps=1e-05, momentum=0.1, affine=True, track_running_stats=True)
    (1): GELU(approximate='none')
    (2): Linear(in_features=32, out_features=2, bias=True)
  )
)
# of parameters = 25826
using fused AdamW: True
AdamW (
Parameter Group 0
    amsgrad: False
    betas: (0.9, 0.95)
    capturable: False
    differentiable: False
    eps: 1e-08
    foreach: None
    fused: True
    lr: 0.0003
    maximize: False
    weight_decay: 0.1

Parameter Group 1
    amsgrad: False
    betas: (0.9, 0.95)
    capturable: False
…
